…
        "model.fit(x_train, y_train, validation_data=(x_valid,y_valid), epochs = 20, callbacks = [ckpt])\n",
        "model.load_weights(ckpt_path)\n",
        "\n",
        "\n"
      ],
      "execution_count": 10,
      "outputs": [
        {
          "output_type": "stream",
          "text": [
            "Model: \"sequential_9\"\n",
            "_________________________________________________________________\n",
            "Layer (type)                 Output Shape              Param #   \n",
            "=================================================================\n",
            "conv2d_38 (Conv2D)           (None, 26, 26, 100)       1000      \n",
            "_________________________________________________________________\n",
            "max_pooling2d_18 (MaxPooling (None, 13, 13, 100)       0         \n",
            "_________________________________________________________________\n",
            "conv2d_39 (Conv2D)           (None, 11, 11, 84)        75684     \n",
            "_________________________________________________________________\n",
            "max_pooling2d_19 (MaxPooling (None, 5, 5, 84)          0         \n",
            "_________________________________________________________________\n",
            "conv2d_40 (Conv2D)           (None, 3, 3, 128)         96896     \n",
            "_________________________________________________________________\n",
            "conv2d_41 (Conv2D)           (None, 1, 1, 63)          72639     \n",
            "_________________________________________________________________\n",
            "flatten_9 (Flatten)          (None, 63)                0         \n",
            "_________________________________________________________________\n",
            "dense_10 (Dense)             (None, 10)                640       \n",
            "=================================================================\n",
            "Total params: 246,859\n",
            "Trainable params: 246,859\n",
            "Non-trainable params: 0\n",
            "_________________________________________________________________\n",
            "Epoch 1/20\n",
            "1869/1875 [============================>.] - ETA: 0s - loss: 0.4554 - acc: 0.8324\n",
…
